Core/gesture_model (1).tflite (tflite, 9916 bytes, 6 tensors)

sequential_3/dense_10/BiasAdd/ReadVariableOp f4 [10]
-0.0060053547 0.032601494 0.03688294 -0.008882573 -0.006005191 -0.005346855 0.055186186 -0.011401767
0.048946224 -0.00017232377
00000000: 91c8 c4bb 2589 053d 9112 173d 3688 11bc
00000010: 31c7 c4bb ac34 afbb e90a 623d 7ace 3abc
00000020: d67b 483d cfb1 34b9

sequential_3/dense_11/BiasAdd/ReadVariableOp f4 [2]
1.1442116 -1.1442114
00000000: 8775 923f 8575 92bf

sequential_3/dense_9/BiasAdd/ReadVariableOp f4 [10]
-0.0015884471 0.023373256 0.045866676 -0.002850069 0.010599022 0.049753793 0.043749537 0.04511343
-0.0055587376 -0.0060050143
00000000: 7133 d0ba 4579 bf3c b2de 3b3d 39c8 3abb
00000010: 85a7 2d3c a2ca 4b3d b732 333d dcc8 383d
00000020: 1226 b6bb b6c5 c4bb

sequential_3/dense_9/MatMul f4 [10, 180]
-0.080247074 0.0023173848 -0.15155727 0.040761918 0.058609635 0.07967149 0.07624526 0.042646922
0.14187302 -0.00500456 -0.05325808 0.13730599 -0.069740236 -0.07751505 -0.1335483 0.050047025
0.16919498 0.1392615 -0.17657581 0.014045291 0.10032131 0.10200704 -0.18575859 -0.033905193
0.029785303 -0.051272046 -0.055434108 -0.074019216 -0.104536206 -0.14630732 0.1732098 0.09123136
0.06635458 -0.143249 -0.14381742 0.012794982 0.060723454 -0.13067041 -0.09271354 -0.07393233
-0.15874481 0.14693293 0.17782722 0.15510522 0.06693831 0.07281369 0.02110801 0.14752753
-0.009359989 -0.05111305 0.06405133 0.012150265 0.15344177 -0.14262818 0.048448633 -0.02640087
-0.08958372 -0.13750266 -0.13039593 0.07642146 -0.14612995 -0.09306317 -0.05965316 0.11600919
-0.04710092 -0.08259462 0.14143139 0.10432504 -0.13669527 -0.10518789 0.035531815 -0.13028006
0.14182194 0.029836493 0.017411135 -0.15093298 0.09223629 0.06733558 0.18202463 0.081662804
0.037295744 -0.08622629 0.12938836 0.14387578 -0.1388055 0.030821744 -0.009805006 -0.027194662
-0.15069743 -0.119835205 -0.11753487 0.024999922 0.090440564 -0.06809895 -0.1747823 0.12784675
0.024663044 0.119829394 0.15157965 0.02087706 -0.17221475 0.12134844 0.15811372 -0.13706699
0.09116927 -0.010242312 0.08272023 0.039702177 -0.12274657 -0.17085645 -0.076426454 -0.15789673
0.12349717 -0.03455076 -0.09244539 0.13671632 0.05675523 0.13378632 0.018070802 -0.13475809
0.106650464 0.1051001 -0.17612095 0.019956598 -0.13964936 -0.06696453 0.07966185 -0.13783498
-0.07284103 -0.09152965 -0.03484821 0.0764701 -0.15157408 -0.09307489 -0.115599416 -0.010995961
0.018642785 -0.015322174 0.024573509 0.15593882 0.12346822 0.15022242 -0.11928274 -0.081396244
0.07930963 0.089043275 -0.1662925 0.02934258 0.1706006 0.122852735 0.062466595 0.043577645
-0.18089768 -0.13766141 -0.07807674 0.0488587 0.14822808 -0.12570916 0.13643572 -0.14928655
0.17222475 0.0024158806 -0.033938866 0.11533965 0.018571734 0.1489299 0.15874338 0.18822744
0.05972761 0.040977333 -0.15282652 -0.16808996 -0.008661699 0.075878724 -0.035085548 -0.08131722
-0.075097196 -0.014378095 -0.010496384 -0.10605442 -0.13073611 1.2287984 1.672224 0.10968271
-0.46448538 -1.2737404 0.15682945 1.3822877 1.6702387 0.32099262 -0.05877099 -0.5724966
0.2901978 1.4226146 2.1539886 -0.11454725 0.27168143 -0.13063625 0.19869055 1.6962938
2.6121871 -1.1341279 0.38009855 0.094770975 -0.25344113 1.6408458 2.2197526 -1.8409687
0.31325313 0.17391342 -0.2679536 1.3686378 2.208754 -1.8424538 0.49437422 0.27315757
-0.3672375 1.6562408 2.281137 -1.5981432 -0.14880571 0.18685612 -0.17756335 1.8733406
2.3868484 -1.3625793 -0.2506945 -0.07935748 -0.04667894 2.06759 2.118886 -1.4858538
-0.2554879 0.02664609 0.0008119822 2.4665887 2.0154548 -1.8765949 0.289609 -0.05470585
0.028591312 2.484018 1.4543419 -2.2917278 -0.084499 0.2229419 -0.19255137 1.9637965
1.3149806 -1.7023357 -0.9720161 0.70734817 -0.58011204 1.3712094 1.4558724 -0.49622408
00000000: 9458 a4bd 44df 173b d431 1bbe f8f5 263d
00000010: a810 703d ce2a a33d 7a26 9c3d 8aae 2e3d
00000020: 2947 113e 4bfd a3bb 2525 5abd f199 0c3e
00000030: f8d3 8ebd 36c0 9ebd e3c0 08be 1cfe 4c3d
00000040: 7341 2d3e 919a 0e3e 4ad0 34be 381e 663c
00000050: 4275 cd3d 11e9 d03d 8037 3ebe 2ce0 0abd
00000060: 4f00 f43c a302 52bd e00e 63bd 6397 97bd
00000070: 1417 d6bd 96d1 15be e95d 313e 82d7 ba3d
00000080: e9e4 873d deaf 12be e044 13be 0ba2 513c
00000090: 28b9 783d 77ce 05be 99e0 bdbd d569 97bd
000000a0: 008e 22be 9675 163e 5718 363e e7d3 1e3e
000000b0: f416 893d 581f 953d b5ea ac3c 7511 173e
000000c0: a45a 19bc eb5b 51bd 582d 833d e811 473c
000000d0: d71f 1d3e 1f0d 12be 1372 463d a346 d8bc
000000e0: ab77 b7bd 7fcd 0cbe 8386 05be db82 9c3d
000000f0: 17a3 15be e797 bebd df56 74bd 3a96 ed3d
00000100: e5ec 40bd 5e27 a9bd 64d3 103e 5ea8 d53d
00000110: d8f9 0bbe c06c d7bd cf89 113d 2368 05be
00000120: c539 113e a96b f43c cca1 8e3c 2d8e 1abe
00000130: 61e6 bc3d 3de7 893d aa64 3a3e d43e a73d
00000140: 6cc3 183d 6997 b0bd 627e 043e 2c54 133e
00000150: 0723 0ebe e27d fc3c 2da5 20bc 57c7 debc
00000160: 6d50 1abe 296c f5bd 1fb6 f0bd a3cc cc3c
00000170: e738 b93d 7677 8bbd 22fa 32be 42ea 023e
00000180: 270a ca3c 1d69 f53d b237 1b3e 5e06 ab3c
00000190: 1059 30be 8885 f83d 90e8 213e 4a5b 0cbe
000001a0: f4b6 ba3d 5fcf 27bc 3969 a93d c09e 223d
000001b0: 8e62 fbbd fef4 2ebe 7985 9cbd aeaf 21be
000001c0: 16ec fc3d 1985 0dbd 0254 bdbd 5dff 0b3e
000001d0: 2c78 683d 48ff 083e 3809 943c 06fe 09be
000001e0: 8f6b da3d b93e d73d 0d59 34be 057c a33c
000001f0: 3e00 0fbe b324 89bd c125 a33d 9d24 0dbe
00000200: ae2d 95bd e673 bbbd ffbc 0ebd 5b9c 9c3d
00000210: 3c36 1bbe 0c9e bebd 63bf ecbd 6728 34bc
00000220: c1b8 983c db09 7bbc 624e c93c 6dae 1f3e
00000230: e8dc fc3d e8d3 193e 824a f4bd 13b3 a6bd
00000240: 166d a23d 525c b63d 9548 2abe da5f f03c
00000250: ecb1 2e3e 379a fb3d f9dc 7f3d 797e 323d
00000260: 3e3d 39be 1df7 0cbe b3e6 9fbd 0f20 483d
00000270: 1ac9 173e e7b9 00be ceb5 0b3e 93de 18be
00000280: af5b 303e c053 1e3b 7b03 0bbd 3237 ec3d
00000290: c023 983c 1481 183e a08d 223e b2be 403e
000002a0: f0a4 743d d9d7 273d 8e7e 1cbe c61f 2cbe
000002b0: cce9 0dbc 4e66 9b3d ddb5 0fbd a589 a6bd
000002c0: 8fcc 99bd 1a92 6bbc 07f9 2bbc 0f33 d9bd
000002d0: b0df 05be 4449 9d3f 700b d63f 54a1 e03d
000002e0: 07d1 edbe ed09 a3bf e697 203e ceee b03f
000002f0: 62ca d53f 2559 a43e dab9 70bd 238f 12bf
00000300: ce94 943e 3c18 b63f f3da 0940 c097 eabd
00000310: d419 8b3e 82c5 05be 8975 4b3e 2820 d93f
00000320: 132e 2740 1a2b 91bf 479c c23e 4917 c23d
00000330: 09c3 81be 3c07 d23f 6d10 0e40 dda4 ebbf
00000340: b762 a03e 5c16 323e 3731 89be 862f af3f
00000350: 3a5c 0d40 87d5 ebbf 9e1e fd3e 4fdb 8b3e
00000360: 8e06 bcbe b3ff d33f 26fe 1140 f58f ccbf
00000370: 8660 18be 3657 3f3e 2bd3 35be a0c9 ef3f
00000380: 20c2 1840 0069 aebf 085b 80be 2d86 a2bd
00000390: 6b32 3fbd 6553 0440 d49b 0740 7530 bebf
000003a0: 4fcf 82be e748 da3c 34db 543a 97dc 1d40
000003b0: 36fd 0040 4334 f0bf a147 943e 3e13 60bd
000003c0: 5438 ea3c 27fa 1e40 e027 ba3f abab 12c0
000003d0: d00d adbd e24a 643e 302c 45be af5d fb3f
000003e0: 4951 a83f 23e6 d9bf 0cd6 78bf c514 353f
000003f0: 3982 14bf ca83 af3f 075a ba3f 1511 febe

sequential_3/dense_10/MatMul f4 [10, 10]
7.837032e-05 -0.00015277756 -0.00018865394 -0.00015828863 -6.5277796e-05 -0.00015289382 0.00026422917 8.0910286e-05
-0.00014748427 -0.00023872724 -7.4875556e-05 -1.1213568 1.671907 -8.935024e-05 -1.0035458 1.7311761
1.7060089 1.6921792 -0.00016475051 -5.786033e-05 -5.10292e-06 -1.1576496 1.7518156 -9.318092e-05
-1.037004 1.489692 2.049384 1.5693654 0.00015711426 5.286026e-05 -1.0530348e-05 -1.9753847e-05
-0.0003865295 0.0001622716 -4.8381866e-05 -1.7844555e-05 0.00021644114 0.000107404354 0.0002059667 -0.00011194988
-0.00015267413 0.000222875 7.076428e-05 -3.1347678e-05 0.000110786714 -5.8077338e-05 -1.054693e-05 -0.00017306735
4.617431e-05 -0.00045433297 -0.00022899557 -7.9864185e-06 0.00012142195 0.00016312851 0.00023430075 -0.00024459622
-6.939443e-05 -3.7294703e-05 0.00017632735 4.971958e-05 -0.000109782544 -1.4653206 1.6778857 0.00034511354
-1.0078733 1.6863602 1.7706735 1.5450431 -0.00010624084 -0.00011365177 -0.00032782074 0.0001082942
0.00020941097 0.00038848442 -0.00023392863 -0.00021643695 7.7788434e-05 -4.040484e-05 -0.00022882293 -0.000161275
-0.00025743712 -1.3311877 1.6718516 -8.2806015e-05 -1.0010241 1.3273996 2.0155184 1.569646
-2.6428272e-05 0.00011695697 -1.3673067e-05 5.9927304e-05 5.3226664e-05 3.0326119e-06 -0.00053405855 3.448676e-05
0.00013863135 4.4382614e-06 -0.00030166036 0.00015427222
00000000: bf5a a438 ea32 20b9 68d1 45b9 48fa 25b9
00000010: c0e5 88b8 1f52 20b9 3d88 8a39 61ae a938
00000020: 02a6 1ab9 db52 7ab9 8206 9db8 9f88 8fbf
00000030: 0c01 d63f 8b61 bbb8 3074 80bf 2e97 dd3f
00000040: 805e da3f 5499 d83f e1c0 2cb9 0eaf 72b8
00000050: c039 abb6 dd2d 94bf 7e3b e03f 206a c3b8
00000060: 8cbc 84bf 3aae be3f 1c29 0340 f7e0 c83f
00000070: 0abf 2439 46b6 5d38 80ab 30b7 10b5 a5b7
00000080: 1ca7 cab9 7327 2a39 a2ed 4ab8 e4b0 95b7
00000090: 7af4 6239 463e e138 c4f8 5739 a2c6 eab8
000000a0: 2617 20b9 8db3 6939 4967 9438 507b 03b8
000000b0: 2a56 e838 1198 73b8 b8f2 30b7 6a79 35b9
000000c0: 4aab 4138 8a33 eeb9 881e 70b9 68fd 05b7
000000d0: eaa3 fe38 7a0d 2b39 a1ae 7539 263d 80b9
000000e0: da87 91b8 e26c 1cb8 83e4 3839 fe89 5038
000000f0: 0e3b e6b8 a08f bbbf f5c4 d63f 5bf0 b439
00000100: fe01 81bf a7da d73f 6ea5 e23f f9c3 c53f
00000110: 9ecd deb8 5458 eeb8 5bdf abb9 021c e338
00000120: 5495 5b39 7fad cb39 bd4a 75b9 5af3 62b9
00000130: 5922 a338 5e78 29b8 30f0 6fb9 ee1b 29b9
00000140: a0f8 86b9 5c64 aabf 3cff d53f 24a8 adb8
00000150: 8f21 80bf 3be8 a93f 41fe 0040 29ea c83f
00000160: 48b2 ddb7 cc46 f538 6065 65b7 745a 7b38
00000170: b23f 5f38 e083 4b36 1000 0cba e0a5 1038
00000180: 925d 1139 60ec 9436 2b28 9eb9 22c4 2139

sequential_3/dense_11/MatMul f4 [2, 10]
0.43984652 -1.4559093 -1.7023927 0.06561171 -0.24230713 -0.29457837 -1.9761235 0.35953778
-2.2984552 -0.6336148 -0.23424825 2.5092905 2.5539691 0.28793308 -0.5087865 -0.70117486
2.57716 -0.53183395 1.887842 0.5614703
00000000: 9033 e13e 3c5b babf 01e8 d9bf 6f5f 863d
00000010: 5c1f 78be fad2 96be 9df1 fcbf 5615 b83e
00000020: e419 13c0 9434 22bf c6de 6fbe 3798 2040
00000030: 3b74 2340 f76b 933e d53f 02bf 3280 33bf
00000040: 30f0 2440 4526 08bf cfa4 f13f 85bc 0f3f
